3_Test_using_LUT/Model_S_x4_6bit_int8.npy (npy, 10128 bytes, 1 tensors)

array i1 [625, 1, 4, 4]
0	0x06	6
1	0x0a	10
2	0xf8	-8
3	0xf9	-7
4	0x07	7
5	0x06	6
6	0xff	-1
7	0xfd	-3
8	0xff	-1
9	0x07	7
10	0xf5	-11
11	0x03	3
12	0xfe	-2
13	0xfe	-2
14	0xfa	-6
15	0x03	3
16	0x07	7
17	0x09	9
18	0xf8	-8
19	0xf9	-7
20	0x08	8
21	0x06	6
22	0xfe	-2
23	0xfc	-4
24	0x00	0
25	0x07	7
26	0xf5	-11
27	0x03	3
28	0x00	0
29	0xfe	-2
30	0xfa	-6
31	0x03	3
32	0x08	8
33	0x08	8
34	0xf6	-10
35	0xf9	-7
36	0x08	8
37	0x07	7
38	0xfe	-2
39	0xfd	-3
40	0xff	-1
41	0x06	6
42	0xf4	-12
43	0x02	2
44	0xfd	-3
45	0xfe	-2
46	0xfb	-5
47	0x03	3
48	0x09	9
49	0x06	6
50	0xf4	-12
51	0xf9	-7
52	0x08	8
53	0x08	8
54	0xfc	-4
55	0xfc	-4
56	0xfc	-4
57	0x05	5
58	0xf4	-12
59	0xff	-1
60	0xfd	-3
61	0x03	3
62	0xfb	-5
63	0xff	-1
64	0x0b	11
65	0x05	5
66	0xf1	-15
67	0xf9	-7
68	0x0b	11
69	0x0c	12
70	0xfa	-6
71	0xfd	-3
72	0xfa	-6
73	0x08	8
74	0xf6	-10
75	0xf9	-7
76	0xfc	-4
77	0x09	9
78	0xf5	-11
79	0xfd	-3
80	0x06	6
81	0x09	9
82	0xf4	-12
83	0xfb	-5
84	0x05	5
85	0x06	6
86	0xfc	-4
87	0xfb	-5
88	0xfe	-2
89	0x0a	10
90	0xf1	-15
91	0x03	3
92	0x05	5
93	0xfd	-3
94	0xfd	-3
95	0x04	4
96	0x07	7
97	0x09	9
98	0xf5	-11
99	0xfc	-4
100	0x07	7
101	0x06	6
102	0xfd	-3
103	0xfc	-4
104	0x00	0
105	0x0b	11
106	0xf2	-14
107	0x05	5
108	0x03	3
109	0xff	-1
110	0xfd	-3
111	0x07	7
112	0x0a	10
113	0x0d	13
114	0xf5	-11
115	0xfe	-2
116	0x09	9
117	0x07	7
118	0xfe	-2
119	0xfd	-3
120	0x00	0
121	0x0e	14
122	0xf2	-14
123	0x05	5
124	0x04	4
125	0xff	-1
126	0xfd	-3
127	0x07	7
128	0x07	7
129	0x0c	12
130	0xf3	-13
131	0xff	-1
132	0x09	9
133	0x08	8
134	0x00	0
135	0xfe	-2
136	0x03	3
137	0x10	16
138	0xf3	-13
139	0x05	5
140	0x08	8
141	0x02	2
142	0xfe	-2
143	0x07	7
144	0x05	5
145	0x0b	11
146	0xf1	-15
147	0x00	0
148	0x09	9
149	0x08	8
150	0x01	1
151	0xfe	-2
152	0x03	3
153	0x12	18
154	0xf2	-14
155	0x03	3
156	0x09	9
157	0x07	7
158	0xfe	-2
159	0x04	4
160	0x08	8
161	0x09	9
162	0xec	-20
163	0xfc	-4
164	0x06	6
165	0x08	8
166	0xfb	-5
167	0xf8	-8
168	0xfc	-4
169	0x0e	14
170	0xed	-19
171	0x05	5
172	0x0f	15
173	0xfa	-6
174	0x04	4
175	0x0b	11
176	0x0b	11
177	0x08	8
178	0xee	-18
179	0xfc	-4
180	0x09	9
181	0x09	9
182	0xfd	-3
183	0xfa	-6
184	0x01	1
185	0x11	17
186	0xee	-18
187	0x08	8
188	0x0c	12
189	0xfe	-2
190	0x02	2
191	0x0b	11
192	0x0a	10
193	0x0a	10
194	0xef	-17
195	0xfd	-3
196	0x08	8
197	0x09	9
198	0xfd	-3
199	0xfc	-4
200	0x02	2
201	0x11	17
202	0xef	-17
203	0x09	9
204	0x0b	11
205	0xff	-1
206	0x02	2
207	0x0b	11
208	0x09	9
209	0x0d	13
210	0xee	-18
211	0xff	-1
212	0x0a	10
213	0x08	8
214	0xfc	-4
215	0xfa	-6
216	0x01	1
217	0x14	20
218	0xef	-17
219	0x05	5
220	0x0c	12
221	0x01	1
222	0x04	4
223	0x0f	15
224	0x08	8
225	0x0d	13
226	0xea	-22
227	0x02	2
228	0x09	9
229	0x07	7
230	0xfc	-4
231	0xfc	-4
232	0x02	2
233	0x19	25
234	0xeb	-21
235	0x04	4
236	0x0e	14
237	0x04	4
238	0x01	1
239	0x0f	15
240	0x07	7
241	0x08	8
242	0xe1	-31
243	0xfe	-2
244	0x06	6
245	0x0d	13
246	0xfb	-5
247	0xf5	-11
248	0xf7	-9
249	0x12	18
250	0xe6	-26
251	0x09	9
252	0x1d	29
253	0xf6	-10
254	0x0c	12
255	0x17	23
