3_Test_using_LUT/Model_F_x4_4bit_int8.npy (npy, 78736 bytes, 1 tensors)

array i1 [4913, 1, 4, 4]
0	0x03	3
1	0x05	5
2	0xff	-1
3	0xfe	-2
4	0x03	3
5	0x03	3
6	0xff	-1
7	0xfb	-5
8	0x02	2
9	0xff	-1
10	0xfe	-2
11	0xfc	-4
12	0x01	1
13	0x03	3
14	0xff	-1
15	0xfe	-2
16	0x03	3
17	0x05	5
18	0xff	-1
19	0xfe	-2
20	0x03	3
21	0x04	4
22	0x00	0
23	0xfb	-5
24	0x02	2
25	0xff	-1
26	0xfe	-2
27	0xfc	-4
28	0x01	1
29	0x03	3
30	0xff	-1
31	0xfe	-2
32	0x03	3
33	0x05	5
34	0xff	-1
35	0xff	-1
36	0x04	4
37	0x04	4
38	0xff	-1
39	0xfb	-5
40	0x02	2
41	0xff	-1
42	0xfe	-2
43	0xfc	-4
44	0x01	1
45	0x03	3
46	0xff	-1
47	0xfe	-2
48	0x03	3
49	0x04	4
50	0xff	-1
51	0xff	-1
52	0x03	3
53	0x04	4
54	0xff	-1
55	0xfb	-5
56	0x02	2
57	0xff	-1
58	0xfe	-2
59	0xfc	-4
60	0x01	1
61	0x03	3
62	0xff	-1
63	0xfe	-2
64	0x03	3
65	0x05	5
66	0xff	-1
67	0xff	-1
68	0x03	3
69	0x04	4
70	0x00	0
71	0xfb	-5
72	0x02	2
73	0xff	-1
74	0xfe	-2
75	0xfc	-4
76	0x01	1
77	0x03	3
78	0xff	-1
79	0xfe	-2
80	0x03	3
81	0x05	5
82	0xff	-1
83	0xff	-1
84	0x03	3
85	0x04	4
86	0x00	0
87	0xfb	-5
88	0x02	2
89	0xff	-1
90	0xfe	-2
91	0xfc	-4
92	0x01	1
93	0x03	3
94	0xff	-1
95	0xfe	-2
96	0x03	3
97	0x05	5
98	0xff	-1
99	0xfe	-2
100	0x03	3
101	0x04	4
102	0xff	-1
103	0xfb	-5
104	0x02	2
105	0xff	-1
106	0xfe	-2
107	0xfc	-4
108	0x01	1
109	0x03	3
110	0xff	-1
111	0xfe	-2
112	0x03	3
113	0x05	5
114	0xff	-1
115	0xfe	-2
116	0x03	3
117	0x03	3
118	0x00	0
119	0xfb	-5
120	0x01	1
121	0xff	-1
122	0xfe	-2
123	0xfb	-5
124	0x01	1
125	0x02	2
126	0xfe	-2
127	0xfe	-2
128	0x03	3
129	0x05	5
130	0xff	-1
131	0xfe	-2
132	0x03	3
133	0x03	3
134	0x00	0
135	0xfb	-5
136	0x01	1
137	0xff	-1
138	0xfe	-2
139	0xfb	-5
140	0x01	1
141	0x02	2
142	0xfe	-2
143	0xfe	-2
144	0x03	3
145	0x05	5
146	0xff	-1
147	0xfe	-2
148	0x03	3
149	0x03	3
150	0x00	0
151	0xfb	-5
152	0x02	2
153	0xff	-1
154	0xfe	-2
155	0xfb	-5
156	0x01	1
157	0x02	2
158	0xfe	-2
159	0xfd	-3
160	0x03	3
161	0x06	6
162	0xff	-1
163	0xfe	-2
164	0x04	4
165	0x04	4
166	0x00	0
167	0xfb	-5
168	0x02	2
169	0xff	-1
170	0xfd	-3
171	0xfb	-5
172	0x00	0
173	0x02	2
174	0xfe	-2
175	0xfd	-3
176	0x04	4
177	0x07	7
178	0xff	-1
179	0xfe	-2
180	0x04	4
181	0x04	4
182	0x00	0
183	0xfa	-6
184	0x03	3
185	0x00	0
186	0xfd	-3
187	0xfc	-4
188	0x01	1
189	0x03	3
190	0xff	-1
191	0xfd	-3
192	0x05	5
193	0x08	8
194	0xff	-1
195	0xfc	-4
196	0x04	4
197	0x05	5
198	0x00	0
199	0xfa	-6
200	0x04	4
201	0x01	1
202	0xfd	-3
203	0xfb	-5
204	0x02	2
205	0x03	3
206	0xfe	-2
207	0xfc	-4
208	0x06	6
209	0x09	9
210	0xff	-1
211	0xfb	-5
212	0x05	5
213	0x06	6
214	0x01	1
215	0xfa	-6
216	0x05	5
217	0x02	2
218	0xfd	-3
219	0xfa	-6
220	0x03	3
221	0x04	4
222	0xfd	-3
223	0xfc	-4
224	0x08	8
225	0x0a	10
226	0xff	-1
227	0xfa	-6
228	0x05	5
229	0x07	7
230	0x01	1
231	0xfa	-6
232	0x06	6
233	0x04	4
234	0xfc	-4
235	0xfa	-6
236	0x03	3
237	0x05	5
238	0xfc	-4
239	0xfb	-5
240	0x0a	10
241	0x0b	11
242	0xff	-1
243	0xf9	-7
244	0x05	5
245	0x09	9
246	0x01	1
247	0xfa	-6
248	0x08	8
249	0x05	5
250	0xfb	-5
251	0xf9	-7
252	0x04	4
253	0x08	8
254	0xfc	-4
255	0xfa	-6
