3_Test_using_LUT/Model_S_x2_4bit_int8.npy (npy, 334212 bytes, 1 tensors)

array i1 [83521, 1, 2, 2]
7 1 -4 -4 8 1 -5 -4
8 2 -5 -4 8 2 -5 -4
8 2 -4 -4 9 2 -4 -3
9 2 -4 -3 9 2 -3 -3
10 2 -3 -3 10 2 -2 -3
11 3 -2 -4 12 3 -1 -5
13 3 -1 -6 13 4 -1 -8
14 3 -1 -9 15 3 -1 -10
15 3 -2 -10 8 1 -4 -5
8 1 -4 -4 8 1 -3 -4
8 2 -4 -4 9 2 -3 -4
8 2 -3 -3 9 3 -3 -3
9 3 -3 -3 9 3 -2 -3
9 3 -2 -3 9 3 -1 -4
9 4 -1 -4 9 4 -1 -5
10 4 0 -6 10 5 0 -7
11 5 0 -8 11 5 0 -9
9 1 -4 -4 8 1 -3 -4
9 1 -3 -4 9 2 -2 -4
9 2 -3 -3 9 2 -3 -3
10 2 -3 -3 10 2 -2 -4
9 3 -2 -4 9 2 -2 -4
9 2 -2 -5 9 2 -2 -5
9 2 -2 -6 9 2 -2 -6
9 2 -2 -7 10 3 -3 -7
10 3 -3 -8 10 1 -4 -5
10 1 -3 -4 9 2 -3 -5
10 1 -2 -4 10 2 -2 -4
10 2 -2 -4 10 3 -2 -3
11 3 -2 -3 11 3 -3 -3
10 3 -3 -4 9 3 -2 -4
9 3 -2 -4 10 3 -2 -5
00000000: 0701 fcfc 0801 fbfc 0802 fbfc 0802 fbfc
00000010: 0802 fcfc 0902 fcfd 0902 fcfd 0902 fdfd
00000020: 0a02 fdfd 0a02 fefd 0b03 fefc 0c03 fffb
00000030: 0d03 fffa 0d04 fff8 0e03 fff7 0f03 fff6
00000040: 0f03 fef6 0801 fcfb 0801 fcfc 0801 fdfc
00000050: 0802 fcfc 0902 fdfc 0802 fdfd 0903 fdfd
00000060: 0903 fdfd 0903 fefd 0903 fefd 0903 fffc
00000070: 0904 fffc 0904 fffb 0a04 00fa 0a05 00f9
00000080: 0b05 00f8 0b05 00f7 0901 fcfc 0801 fdfc
00000090: 0901 fdfc 0902 fefc 0902 fdfd 0902 fdfd
000000a0: 0a02 fdfd 0a02 fefc 0903 fefc 0902 fefc
000000b0: 0902 fefb 0902 fefb 0902 fefa 0902 fefa
000000c0: 0902 fef9 0a03 fdf9 0a03 fdf8 0a01 fcfb
000000d0: 0a01 fdfc 0902 fdfb 0a01 fefc 0a02 fefc
000000e0: 0a02 fefc 0a03 fefd 0b03 fefd 0b03 fdfd
000000f0: 0a03 fdfc 0903 fefc 0903 fefc 0a03 fefb
