3_Test_using_LUT/Model_S_x4_5bit_int8.npy (npy, 105104 bytes, 1 tensors)

array i1 [6561, 1, 4, 4]
0	0x06	6
1	0x0a	10
2	0xf8	-8
3	0xf9	-7
4	0x07	7
5	0x06	6
6	0xff	-1
7	0xfd	-3
8	0xff	-1
9	0x07	7
10	0xf5	-11
11	0x03	3
12	0xfe	-2
13	0xfe	-2
14	0xfa	-6
15	0x03	3
16	0x07	7
17	0x0a	10
18	0xf8	-8
19	0xf9	-7
20	0x07	7
21	0x05	5
22	0xfe	-2
23	0xfd	-3
24	0xff	-1
25	0x07	7
26	0xf5	-11
27	0x03	3
28	0xff	-1
29	0xfe	-2
30	0xfa	-6
31	0x03	3
32	0x07	7
33	0x09	9
34	0xf8	-8
35	0xf9	-7
36	0x08	8
37	0x06	6
38	0xfe	-2
39	0xfc	-4
40	0x00	0
41	0x07	7
42	0xf5	-11
43	0x03	3
44	0x00	0
45	0xfe	-2
46	0xfa	-6
47	0x03	3
48	0x07	7
49	0x08	8
50	0xf7	-9
51	0xf9	-7
52	0x08	8
53	0x07	7
54	0xfe	-2
55	0xfd	-3
56	0x00	0
57	0x06	6
58	0xf5	-11
59	0x03	3
60	0xff	-1
61	0xfe	-2
62	0xfb	-5
63	0x03	3
64	0x08	8
65	0x08	8
66	0xf6	-10
67	0xf9	-7
68	0x08	8
69	0x07	7
70	0xfe	-2
71	0xfd	-3
72	0xff	-1
73	0x06	6
74	0xf4	-12
75	0x02	2
76	0xfd	-3
77	0xfe	-2
78	0xfb	-5
79	0x03	3
80	0x08	8
81	0x07	7
82	0xf4	-12
83	0xf9	-7
84	0x08	8
85	0x07	7
86	0xfd	-3
87	0xfc	-4
88	0xfe	-2
89	0x05	5
90	0xf4	-12
91	0x01	1
92	0xfd	-3
93	0x01	1
94	0xfb	-5
95	0x01	1
96	0x09	9
97	0x06	6
98	0xf4	-12
99	0xf9	-7
100	0x08	8
101	0x08	8
102	0xfc	-4
103	0xfc	-4
104	0xfc	-4
105	0x05	5
106	0xf4	-12
107	0xff	-1
108	0xfd	-3
109	0x03	3
110	0xfb	-5
111	0xff	-1
112	0x0a	10
113	0x06	6
114	0xf2	-14
115	0xf9	-7
116	0x09	9
117	0x0a	10
118	0xfb	-5
119	0xfd	-3
120	0xfb	-5
121	0x06	6
122	0xf4	-12
123	0xfc	-4
124	0xfd	-3
125	0x06	6
126	0xf9	-7
127	0xfd	-3
128	0x0b	11
129	0x05	5
130	0xf1	-15
131	0xf9	-7
132	0x0b	11
133	0x0c	12
134	0xfa	-6
135	0xfd	-3
136	0xfa	-6
137	0x08	8
138	0xf6	-10
139	0xf9	-7
140	0xfc	-4
141	0x09	9
142	0xf5	-11
143	0xfd	-3
144	0x06	6
145	0x09	9
146	0xf7	-9
147	0xfb	-5
148	0x05	5
149	0x06	6
150	0xfd	-3
151	0xfc	-4
152	0xfe	-2
153	0x08	8
154	0xf3	-13
155	0x02	2
156	0x01	1
157	0xfd	-3
158	0xfb	-5
159	0x03	3
160	0x06	6
161	0x09	9
162	0xf7	-9
163	0xfb	-5
164	0x07	7
165	0x06	6
166	0xfd	-3
167	0xfd	-3
168	0x00	0
169	0x09	9
170	0xf4	-12
171	0x04	4
172	0x00	0
173	0xfe	-2
174	0xfb	-5
175	0x05	5
176	0x08	8
177	0x0b	11
178	0xf7	-9
179	0xfa	-6
180	0x08	8
181	0x06	6
182	0xfe	-2
183	0xfd	-3
184	0x00	0
185	0x0a	10
186	0xf4	-12
187	0x05	5
188	0x01	1
189	0xff	-1
190	0xfb	-5
191	0x05	5
192	0x08	8
193	0x0c	12
194	0xf7	-9
195	0xfc	-4
196	0x09	9
197	0x07	7
198	0xfe	-2
199	0xfd	-3
200	0x00	0
201	0x0a	10
202	0xf4	-12
203	0x04	4
204	0x02	2
205	0xfe	-2
206	0xfb	-5
207	0x05	5
208	0x07	7
209	0x0b	11
210	0xf7	-9
211	0xfc	-4
212	0x09	9
213	0x07	7
214	0xff	-1
215	0xfd	-3
216	0x00	0
217	0x0a	10
218	0xf4	-12
219	0x04	4
220	0x02	2
221	0xff	-1
222	0xfb	-5
223	0x05	5
224	0x07	7
225	0x0b	11
226	0xf6	-10
227	0xfc	-4
228	0x09	9
229	0x08	8
230	0xff	-1
231	0xfd	-3
232	0x00	0
233	0x0b	11
234	0xf4	-12
235	0x03	3
236	0x02	2
237	0x00	0
238	0xfc	-4
239	0x05	5
240	0x06	6
241	0x0a	10
242	0xf5	-11
243	0xfc	-4
244	0x08	8
245	0x07	7
246	0xfe	-2
247	0xfd	-3
248	0xff	-1
249	0x0a	10
250	0xf4	-12
251	0x02	2
252	0x02	2
253	0x02	2
254	0xfc	-4
255	0x04	4
