3_Test_using_LUT/Model_S_x3_4bit_int8.npy (npy, 751817 bytes, 1 tensors)

array i1 [83521, 1, 3, 3]
-2 0 6 -6 0 -2 -16 8
12 -2 1 6 -6 0 -2 -16
8 12 -2 1 6 -5 0 -2
-15 8 11 -2 1 6 -6 0
-2 -15 8 12 -1 1 6 -6
0 -3 -15 8 12 0 1 6
-6 1 -3 -15 9 12 1 1
6 -6 1 -3 -15 9 12 1
0 6 -6 1 -3 -16 9 12
2 0 5 -5 1 -3 -16 8
12 4 -1 4 -3 0 -4 -16
9 12 5 -1 3 1 0 -5
-16 9 11 7 -1 1 4 -1
-6 -16 9 9 9 -1 0 8
-2 -6 -15 8 6 12 -1 -2
11 -4 -6 -15 7 4 16 0
-3 14 -5 -7 -15 7 1 20
1 -5 18 -7 -7 -16 6 -2
23 2 -6 21 -9 -7 -16 5
-5 -2 1 5 -7 -1 -4 -14
7 11 -2 1 6 -7 0 -3
-15 8 12 -2 1 6 -6 0
-3 -15 8 11 -1 1 7 -5
0 -3 -14 8 11 -1 1 7
-6 0 -3 -14 8 11 -1 1
7 -6 1 -3 -14 8 11 0
1 7 -6 0 -3 -14 8 11
0 1 7 -6 0 -4 -14 8
11 1 1 7 -6 0 -3 -15
8 11 2 1 7 -5 0 -3
-15 8 12 3 1 6 -4 0
-3 -14 8 11 5 0 5 -1
00000000: fe00 06fa 00fe f008 0cfe 0106 fa00 fef0
00000010: 080c fe01 06fb 00fe f108 0bfe 0106 fa00
00000020: fef1 080c ff01 06fa 00fd f108 0c00 0106
00000030: fa01 fdf1 090c 0101 06fa 01fd f109 0c01
00000040: 0006 fa01 fdf0 090c 0200 05fb 01fd f008
00000050: 0c04 ff04 fd00 fcf0 090c 05ff 0301 00fb
00000060: f009 0b07 ff01 04ff faf0 0909 09ff 0008
00000070: fefa f108 060c fffe 0bfc faf1 0704 1000
00000080: fd0e fbf9 f107 0114 01fb 12f9 f9f0 06fe
00000090: 1702 fa15 f7f9 f005 fbfe 0105 f9ff fcf2
000000a0: 070b fe01 06f9 00fd f108 0cfe 0106 fa00
000000b0: fdf1 080b ff01 07fb 00fd f208 0bff 0107
000000c0: fa00 fdf2 080b ff01 07fa 01fd f208 0b00
000000d0: 0107 fa00 fdf2 080b 0001 07fa 00fc f208
000000e0: 0b01 0107 fa00 fdf1 080b 0201 07fb 00fd
000000f0: f108 0c03 0106 fc00 fdf2 080b 0500 05ff
