3_Test_using_LUT/Model_S_x4_7bit_int8.npy (npy, 1424 bytes, 1 tensors)

array i1 [81, 1, 4, 4]
00000000: 060a f8f9 0706 fffd ff07 f503 fefe fa03
00000010: 0808 f6f9 0807 fefd ff06 f402 fdfe fb03
00000020: 0b05 f1f9 0b0c fafd fa08 f6f9 fc09 f5fd
00000030: 0809 ecfc 0608 fbf8 fc0e ed05 0ffa 040b
00000040: 0a0a effd 0809 fdfc 0211 ef09 0bff 020b
00000050: 080d ea02 0907 fcfc 0219 eb04 0e04 010f
00000060: 0505 d1fe 0612 fbf1 ef13 de0f 31f4 1428
00000070: 0f01 d7fb 080c fef1 fa18 da0c 26ff 0e1e
00000080: 0909 d3f6 0b10 01f7 041e e40e 18f7 091a
00000090: 040b f0f6 0f05 03f7 0106 ed02 ffff f8f7
000000a0: 040e f5f4 1208 07fa 0007 ed05 fcfe f8fa
000000b0: 0a13 f9f1 190a 0bfd fd07 f103 fbfd f5f4
000000c0: fe0b eb00 0e0a fceb 0109 e1f5 12f6 f902
000000d0: 000c edf2 130f 04f2 0611 e807 0b01 0310
000000e0: 0611 f1f7 130d 0af9 0515 eb08 0807 030c
000000f0: def0 c5f6 f607 fbd0 fb11 c0f1 5e0d 1d2a
6 10 -8 -7 7 6 -1 -3
-1 7 -11 3 -2 -2 -6 3
8 8 -10 -7 8 7 -2 -3
-1 6 -12 2 -3 -2 -5 3
11 5 -15 -7 11 12 -6 -3
-6 8 -10 -7 -4 9 -11 -3
8 9 -20 -4 6 8 -5 -8
-4 14 -19 5 15 -6 4 11
10 10 -17 -3 8 9 -3 -4
2 17 -17 9 11 -1 2 11
8 13 -22 2 9 7 -4 -4
2 25 -21 4 14 4 1 15
5 5 -47 -2 6 18 -5 -15
-17 19 -34 15 49 -12 20 40
15 1 -41 -5 8 12 -2 -15
-6 24 -38 12 38 -1 14 30
9 9 -45 -10 11 16 1 -9
4 30 -28 14 24 -9 9 26
4 11 -16 -10 15 5 3 -9
1 6 -19 2 -1 -1 -8 -9
4 14 -11 -12 18 8 7 -6
0 7 -19 5 -4 -2 -8 -6
10 19 -7 -15 25 10 11 -3
-3 7 -15 3 -5 -3 -11 -12
-2 11 -21 0 14 10 -4 -21
1 9 -31 -11 18 -10 -7 2
0 12 -19 -14 19 15 4 -14
6 17 -24 7 11 1 3 16
6 17 -15 -9 19 13 10 -7
5 21 -21 8 8 7 3 12
-34 -16 -59 -10 -10 7 -5 -48
-5 17 -64 -15 94 13 29 42
