2_Transfer_to_LUT/Model_S.pth (torch_old, 86746 bytes, 12 tensors)

weight f4 [64, 1, 2, 2]
00000000: abd3 ecbe 3eb0 efbe 77f7 3b3f 095a ebbe
00000010: 99bd 32bf 2a93 223f 1277 b3be f15b b23f
00000020: 818f 5abc ece5 9bbf 399b d1be 11ef 56bd
00000030: f1c7 34be 4490 063f 1a30 a2bd a59e 4bbf
00000040: db4f 903f a285 aabf bd6b 2ebe c416 d8be
00000050: 822b 733f b25c 0abe 385a 17bb f6ec a8be
00000060: e05c 81be 07af 003f 5167 5a3f 878c 613e
00000070: 4927 42bf 9e3a 593f 4b7e 0fbf 306b 053f
00000080: 00bb a43e c6db 6c3e 3b9e 8d3e 38d5 9dbe
00000090: 920a c73e dc01 703d 3c66 09be 3e4d a13e
000000a0: 1ead 5bbe 7cef b1be cdad 523f b8bf 81bd
000000b0: 1bcd 59bf 1233 c93e 593b eb3f adca ee3e
000000c0: 4869 bb3f 46d9 85bf f813 483e df82 913e
000000d0: fb8c 07bf 2062 303f a064 81be 0eff 723f
000000e0: 57ea 133e 84a2 dabd d89f 573e 9c24 353f
000000f0: dc76 d53e 2bb9 c83e a4b3 863d 249d d5bf
00000100: 6837 a9be 60c2 8cbd 01c3 553f a5fa f8be
00000110: 5036 0e3e 1826 703f db74 a83f 4783 16bf
00000120: 839b d7bd 31a7 163e 7a71 bd3e 2c45 5a3f
00000130: 2128 1ebe bbbf c93e 3408 133f d6fc 70bf
00000140: 68d5 f23e b7e2 b33f 0c3f 383f a91c 2b3f
00000150: 76e3 c6bd c76d 65bf fd4f 7b3f 66ba 653d
00000160: 754c a63d 05de 0b3f 4f3c 0f3f 5cee 963d
00000170: d3d9 40be e8fd 493d a8d1 093f 6de6 f5bd
00000180: a6b0 f0be ada8 f13f c3d2 4f3f 0960 5dbe
00000190: 8117 0fbf e98b 5e3f 4980 5d3f 8f5b aebe
000001a0: be72 09bf 8f4e 8e3e be14 9c3f bed9 b6bf
000001b0: febb 4fbf 9a11 a3be ce43 373e fa09 7a3e
000001c0: 8b02 d0bd 4fd4 88bf b6f8 0c3e 87be c93e
000001d0: fa07 c7be 5135 40be 1f49 16bf f62b e2be
000001e0: 34c2 4fbf 9abf f73f 307f 12bf e1b6 dc3e
000001f0: e710 333d 55f4 64bf 58e3 3a3f f74a 063f
00000200: de49 27bf 7431 a0be e537 71be a049 f93e
00000210: a88d 5abf 2fe1 053f 04c4 44bd 331f cabe
00000220: 8518 163f 5951 753e c13d bc3e 9090 2e3f
00000230: b4cd 61bd 2ecb 5ebd 446d 663e ffe2 363e
00000240: 5e49 b43f 52eb ddbe e08e 4bbf efd2 bfbe
00000250: dbbb ebbe 0def 3abf 008e 7c3d 9eb9 1e3f
00000260: 7008 4abf 6082 2d3f 5f68 293e 48f4 73be
00000270: fe49 d7be c6be 1cbf 39a5 363f cf27 51bd
00000280: 2a17 963f bbf7 ccbe f41e c6be cd3e c9be
00000290: de67 053f 55db 35be ef0f 9abf 0d3b ecbe
000002a0: 706e b5be fce8 1a3f c174 323f 79c7 f7bd
000002b0: 43de 4cbf 92c0 acbe 32e5 733f f68b ab3d
000002c0: 355e 813e 5788 c43e c8ef a2bf 874e 623e
000002d0: b0db 8dbe 0cdd 79bf bfad 8c3e 402a dcbd
000002e0: 6915 17bf d2fe 7a3f 6b88 4e3f 44f1 d8be
000002f0: 11f8 2bbf 19a2 01bf 9919 973e f689 303f
00000300: 680a 73be 859c 80bf 66c1 06bf b67b a5bc
00000310: 6320 0fbd 6817 18bf 5f0b f7bc f465 9dbf
00000320: 0631 c1be 5379 adbe b45b 763f 44b8 5e3f
00000330: 2c13 ec3e 1a48 443e 2a38 01bf 40a5 babd
00000340: aa0b cb3c 21d5 523e a846 a4be 5843 ce3e
00000350: 8a62 36bf ff45 55bf 9961 8d3f 7a97 b1bd
00000360: 8962 e83d 2596 b83f 2638 883f e4f6 413f
00000370: 1fab f83e d054 91be ee12 b7bd 898a 513f
00000380: 8ae4 95be 36a2 7fbf 289e a13e 4ce0 4a3f
00000390: 4560 4cbf adb9 06bf ac48 1ebf 81ab 3a3f
000003a0: 3743 9dbf f175 95bf a85b dd3d 5f1f a93e
000003b0: 8994 42bf b339 b43f 4f1f 0ebe 5dd9 853e
000003c0: 47f0 3b3f ee13 e6bc 7449 d03d a503 d7be
000003d0: 5f02 963f 456e 653f 1409 3d3f a3fd 443f
000003e0: 02e5 b13d a0d0 8d3e b1cb e73e 4484 c43e
000003f0: fc44 e13e 613b ecbd e9d7 5d3f 8bcb 163f
-0.4625524 -0.4681415 0.73424476 -0.4596713 -0.69820553 0.63505805 -0.3505178 1.3934308
-0.013339878 -1.2179542 -0.40938738 -0.052474085 -0.17654397 0.5256388 -0.07919331 -0.7953895
1.127437 -1.3322031 -0.17033286 -0.4220487 0.9498826 -0.13511923 -0.0023094546 -0.32993287
-0.2526617 0.5026707 0.853139 0.22026263 -0.75841194 0.8485507 -0.5605208 0.5211668
0.3217392 0.23130712 0.27659783 -0.30826735 0.38875252 0.058595523 -0.13417906 0.31504244
-0.21452758 -0.34753025 0.8229645 -0.063353956 -0.8507859 0.39296776 1.8377486 0.46639004
1.4641504 -1.0456932 0.19538867 0.2842016 -0.52949494 0.68899727 -0.25272083 0.9492043
0.14444862 -0.10675529 0.2105707 0.70758986 0.41692245 0.39203772 0.065772325 -1.668858
-0.33050084 -0.068730116 0.8350068 -0.48628727 0.13887906 0.93808126 1.3160661 -0.58794063
-0.105277084 0.14712216 0.37000638 0.852618 -0.15444995 0.3940409 0.5743439 -0.941358
0.4742844 1.4053563 0.719712 0.66840607 -0.097113535 -0.8962063 0.9816893 0.056085967
0.08120052 0.5463565 0.559514 0.07369682 -0.18833093 0.04931441 0.53835535 -0.12006841
-0.47009772 1.8879601 0.8118097 -0.21618666 -0.5589524 0.86932236 0.8652387 -0.3405423
-0.5369071 0.2779431 1.219383 -1.42852 -0.8114623 -0.31849366 0.17896959 0.24417868
-0.10156735 -1.0689791 0.1376675 0.39403173 -0.38873273 -0.18770339 -0.58705324 -0.44174165
-0.81155705 1.9355347 -0.5722532 0.43108276 0.04371729 -0.8943532 0.7300315 0.5245814
-0.6534709 -0.3128773 -0.23556478 0.48688984 -0.853724 0.5229673 -0.048038498 -0.39476928
0.58631164 0.23956813 0.36765864 0.68189335 -0.055127814 -0.054392986 0.22502619 0.1786003
1.408489 -0.43343598 -0.79514885 -0.37465617 -0.4604176 -0.7302101 0.06165886 0.6200198
-0.78919125 0.6777706 0.1654372 -0.23823655 -0.4204864 -0.612286 0.7134586 -0.051063355
1.1725819 -0.40032753 -0.3869549 -0.39305726 0.52111614 -0.1775945 -1.2036113 -0.46138802
-0.3543582 0.60511756 0.697094 -0.12098593 -0.80026644 -0.3374067 0.952716 0.08376305
0.25267187 0.3838527 -1.2729425 0.22100268 -0.2770667 -0.97602916 0.27476308 -0.10750246
-0.59017044 0.98045075 0.8067691 -0.4237157 -0.67175394 -0.50637966 0.29511717 0.6896051
-0.23734438 -1.0047766 -0.5263885 -0.020200592 -0.034942996 -0.59410715 -0.03015679 -1.2296739
-0.37732714 -0.33881626 0.9623368 0.8699992 0.46108377 0.1916813 -0.50476325 -0.0911355
0.024785835 0.20589115 -0.32085156 0.40285754 -0.7124411 -0.8330993 1.104541 -0.0867147
0.11346919 1.442082 1.0642135 0.7576735 0.48568055 -0.2838502 -0.089391574 0.8185201
-0.29275924 -0.9985689 0.31565976 0.792485 -0.79834396 -0.5262707 -0.6182964 0.72917944
-1.2286137 -1.1676618 0.10808498 0.33031747 -0.76007897 1.4080108 -0.13879131 0.26142398
0.7341351 -0.028085675 0.1017026 -0.41994968 1.1719474 0.8962138 0.7384198 0.7694952
0.08686258 0.2769823 0.45272592 0.3838216 0.43997943 -0.11534763 0.8665758 0.5890433

bias f4 [64]
00000000: 92fa 813d 05ff 243c 0000 0000 904a 50bc
00000010: c56f 37bd fedf 88bc e007 50bc f8bf 3d3b
00000020: 1afe 87bc 4976 c13c 36ff aa3c 2c0c 9dbc
00000030: 579d 28bc 2d17 8f3c 6153 0bbd 95a8 413d
00000040: f57c 7bbc 8718 0bbd 1783 7f3c c20d bf3d
00000050: 91ca 6abc 71b7 61bc 8809 f6bc 8962 403d
00000060: 2fdb 973c 5116 c4bb 68d6 2ebd 2eb6 c43c
00000070: 6bf3 8a3c 0000 0000 98ed 383c 82d8 11bc
00000080: 18bc 00bd 601b 493c fb8f ce3a dc02 4bbb
00000090: 1cc2 b0bc bad1 0b3d 6713 923c 09c1 643b
000000a0: 1aef 74bb 7843 1c3c 12a4 fb3b 0322 ba3b
000000b0: 7918 f23c c1bf dd3d 7353 8b3c 4cd6 903b
000000c0: 0000 0000 0000 0000 61be 973b 42fe 62bd
000000d0: d043 d23b 7475 fe3b 38ba 01bd 1ba3 c03b
000000e0: df00 58bc 0fa3 4e3d 23f1 883c 1ce2 93bb
000000f0: acd2 6bbc 2d86 1cbc 50ed 80bc f6b4 0abc
0.063466206 0.010070567 0.0 -0.01271309 -0.044784326 -0.01670837 -0.01269719 0.0028953534
-0.016600657 0.023615973 0.020873647 -0.019170843 -0.010291419 0.017467106 -0.034015063 0.047279913
-0.015349616 -0.033958938 0.015595219 0.09328796 -0.014330522 -0.013776646 -0.030033842 0.04696897
0.018537132 -0.0059841056 -0.042684942 0.024012651 0.016961774 0.0 0.0112871155 -0.008901717
-0.03142938 0.012274593 0.0015759462 -0.0030977046 -0.021576934 0.034135558 0.017831517 0.0034905097
-0.003737396 0.00953757 0.007679471 0.005680324 0.029552685 0.1082759 0.017007565 0.0044200774
0.0 0.0 0.004630849 -0.05541826 0.0064167753 0.0077654663 -0.031671733 0.0058788187
-0.013183801 0.050448474 0.016716545 -0.0045130383 -0.01439349 -0.009553474 -0.01573816 -0.008465996

weight f4 [64, 64, 1, 1]
00000000: 4bba 0a3e ebf0 9ebd 3aa0 523d ac86 813e
00000010: 25e3 813e a0a2 4c3d 7ba5 dabe 3341 003b
00000020: f657 323e 90a3 b73d ee7b c2bd 9629 9a3d
00000030: 00e5 4d3c 2673 dabb b971 98bd 8d3e c33d
00000040: 5d31 cdbc eb55 d5bd 4af0 1e3e 29d8 933d
00000050: 68b9 033e 2d75 a03d 23a6 4bbe 4988 633e
00000060: 0767 0e3e bc66 babd f772 26be 178d d13d
00000070: 8ba2 f83e 7f87 3cbe e1d8 ae3e 318f a03e
00000080: 9ab1 20be a555 e1be 8277 b83d 8966 07be
00000090: 0461 233c 292c 183c 4433 be3e 2527 5ebe
000000a0: fc13 1b3e 1dfa 1d3c 7dd4 423e f7fa 9d3e
000000b0: 87e8 4dbd 4fc1 9c3d 5248 383e 2feb bfbd
000000c0: b25d c13c c5ea 23be 0853 65bd f48b d3bd
000000d0: 40d7 46bd 0524 bd3d ec66 88be 5a99 d33d
000000e0: f107 ad3e 9479 343e b40b 84be 27fc b9bd
000000f0: 620f 403e f0e9 98bd 456d e83c fadf 81bd
00000100: c1cd 223d 53f6 2f3e 47c7 723c 09e5 4bbd
00000110: fb27 0b3e ed0a 9b3d 0063 96bc 0128 493e
00000120: ba1d 7bbd 6dc8 71be e9c0 513b 1953 efbd
00000130: d988 8abd dd61 c23c 10ef 293e 22d0 cfbd
00000140: 6462 45be ec10 e4bd 642c 9a3d 4cd4 3cbc
00000150: b712 0ebd 62e2 6e3e fee3 153e cdb1 003c
00000160: 0e0c 3ebe 9b7b 063e dd11 79be 5a00 60be
00000170: b497 c0bb 10b8 293e c3b9 c93b 2b66 86be
00000180: 8c32 8b3e 456e 7dbd c08e debc d9d8 a0be
00000190: 5bab afbd 359b 813d e065 2abe 2308 7a3e
000001a0: 5e1e a23c ae1e 89be 6ae0 893e a05b 1c3e
000001b0: 7f20 d0be 6578 78be 175b 783e fb37 24bd
000001c0: 3116 4ebd aabf 26be 1a4b 8ebd 55ea b43c
000001d0: a9cd d2be 72f3 07bd e9e4 933d 6871 7b3e
000001e0: 3144 0dbd 4804 993e ffae f73d 3e10 26bd
000001f0: f611 b8bd 43d2 0bbe c1bc f33d 041e 82be
00000200: 49aa b13d 1830 ebbd 18e7 babe 5c15 3b3e
00000210: 4a77 a1bd e85a a4bb a205 573e 3da4 09be
00000220: 1bcd a2be 4961 49be 5d65 093f 0360 d93d
00000230: 6454 503c 5ccf 223d 5c00 ce3c f28d 8cbd
00000240: 1b8f 2dbd a793 36bc fca9 8d3d fa4c 58be
00000250: d533 32be 303d 03be 6356 993b b4a3 393e
00000260: fb48 ed3e 5fe2 25be db54 363d 76ff 893e
00000270: dede 2d3e 32ef a1bd 4ea0 c8bc 07bd 0cbe
00000280: c7ed 793e b536 3f3e 6d0e 453c 3c19 1c3c
00000290: 6357 3c3d 4f41 203e 27a8 10be 6ee3 49be
000002a0: 1e32 ef3d 39a1 5ebe dbee 3c3e f9c7 32bd
000002b0: 9763 b7bd 93bc 09be a9e9 9abe f166 b83e
000002c0: d3ec debb 35cc 4d3e 4d7b 6ebe 588e a5bd
000002d0: d751 8fbd c233 403d 7356 febc 2c4e 253d
000002e0: 8d1a 47be 3795 063c 69d1 5e3d 1703 92bd
000002f0: 7d35 c5bd edca 823e 0dff 9d3e 300e 7f3b
00000300: ac1c 92bd bb5b 8d3c d332 97be eb16 37be
00000310: 8ffc 8bbc 480c 2bbd 0bdc b23d 2be8 2f3e
00000320: 3c49 e2bd 5e75 24be 9662 323e b685 ec3b
00000330: aff0 9f3b e52d 103d 612b 4abe 4dab 703e
00000340: 6e62 b73e 8630 e0bd 7da2 babd bca8 9fbd
00000350: 467b 2cbe ec27 debd 8130 1a3d f5ae 093e
00000360: e989 683e 0ca2 0b3d 3b1e 473e baf6 dabe
00000370: da64 3b3d b4ad 483e 6f4b 093e 36e7 ca3e
00000380: 376b 9bbe e05d 183c e526 41be b0a2 b03d
00000390: c19b 33be 902f 0c3e 9488 02bf 9b47 87bc
000003a0: c609 0abd d9bb af3e d343 4a3e 072a c13e
000003b0: 2c13 86be 1da4 c5bd 00f0 b0bc f703 9a3d
000003c0: 5984 93bd 9d21 93be 845b 89be 1c27 3a3f
000003d0: 63e3 15be 8627 c33e 1cb7 fcbc c834 04be
000003e0: d7cf db3d 3639 b33c 8499 c1bd 618e 5bbe
000003f0: 8e2c 2b3e be87 983d d6a2 03bd 0949 153d
0.13547628 -0.07760795 0.051422335 0.2529806 0.2536861 0.04995978 -0.42704377 0.0019570112
0.17416367 0.08966744 -0.09496294 0.07527463 0.012566805 -0.006666559 -0.07443566 0.09533415
-0.025047952 -0.10416778 0.1552135 0.07218964 0.12863696 0.078348495 -0.19887595 0.22219957
0.1390649 -0.09101626 -0.16254793 0.10231989 0.4856151 -0.18411063 0.3414984 0.31359246
-0.1569275 -0.44010654 0.09007169 -0.13222708 0.009971861 0.009287872 0.37148488 -0.2169462
0.15144342 0.009642151 0.1902637 0.30855533 -0.050270583 0.07654058 0.17996338 -0.093710296
0.023604248 -0.16007526 -0.055987388 -0.10329428 -0.048545122 0.09235386 -0.26641023 0.10331984
0.3379512 0.17624503 -0.2579018 -0.09081297 0.18755868 -0.07466495 0.028372416 -0.06341548
0.039747003 0.17183809 0.014818019 -0.04977897 0.1358947 0.07570443 -0.018357754 0.19644167
-0.061307646 -0.23611613 0.0032005853 -0.116857715 -0.06764383 0.023728305 0.16595101 -0.1014712
-0.19275814 -0.1113604 0.07527998 -0.011525225 -0.034685817 0.23328546 0.14637753 0.007854891
-0.18559286 0.13133089 -0.2432322 -0.21875134 -0.0058774594 0.1657412 0.0061561777 -0.26249823
0.27187002 -0.06187274 -0.027167678 -0.31415442 -0.08577605 0.063284315 -0.16640425 0.24417166
0.01978987 -0.2678122 0.26929027 0.15269327 -0.40649793 -0.24264677 0.24253498 -0.04009245
-0.050314132 -0.16284052 -0.06947918 0.022084394 -0.4117253 -0.033191152 0.072213955 0.2455498
-0.03448886 0.2988608 0.12093925 -0.040542834 -0.08987801 -0.13654427 0.11901236 -0.25413525
0.086750574 -0.114837825 -0.36504436 0.18269867 -0.07884081 -0.0050157197 0.20998242 -0.13441558
-0.31797108 -0.19666018 0.53670293 0.10614016 0.012715433 0.039748535 0.025146656 -0.068630114
-0.042372804 -0.0111436015 0.069171876 -0.21123114 -0.17402585 -0.1281631 0.0046794876 0.18128854
0.46344742 -0.16199635 0.04451452 0.26952714 0.16979548 -0.07906951 -0.024490502 -0.13743983
0.24407111 0.18673213 0.012027365 0.009527501 0.045981776 0.15649913 -0.14126645 -0.19715664
0.11679481 -0.21741189 0.18450491 -0.04364774 -0.08954542 -0.13450842 -0.30256394 0.36016038
-0.006803134 0.2009743 -0.23289223 -0.080837905 -0.069980316 0.04692436 -0.031047082 0.040357754
-0.19443722 0.0082142865 0.054398928 -0.071294956 -0.09629343 0.25545445 0.3085865 0.0038918369
-0.07134375 0.017255655 -0.29530963 -0.17879836 -0.017088203 -0.04175976 0.08733376 0.17178409
-0.110491246 -0.16060397 0.1742042 0.007218088 0.0048809866 0.03520002 -0.1974311 0.23502846
0.35817283 -0.10946755 -0.091130234 -0.077958554 -0.168439 -0.10847458 0.037643913 0.13445647
0.22708859 0.034090087 0.19445126 -0.42766362 0.045750476 0.19597512 0.13407682 0.39629525
-0.30355236 0.009299725 -0.18862493 0.0862478 -0.17539884 0.13690019 -0.5098965 -0.016513636
-0.033700727 0.34323004 0.19752435 0.37727377 -0.26186502 -0.09650443 -0.021598816 0.075202875
-0.07202978 -0.28736582 -0.26827633 0.72715926 -0.14637522 0.3811609 -0.030849032 -0.1291076
0.10733002 0.021877866 -0.09453109 -0.21441032 0.16716215 0.07447766 -0.032137714 0.036446605

bias f4 [64]
00000000: 2f77 043e 881c 81bb a0b6 423c 5a73 49bc
00000010: 5cbb e6bc 984c cf3c f194 39bc d0bf abbd
00000020: 4ee3 0c3d d978 78bc 496e a0bc 73bb 0cbd
00000030: 636b 89bb d3e8 ef3b 6877 cdbb 4314 66bc
00000040: e9fa 14bd 32e7 7b3b b4e0 6bbc 55fc cd3b
00000050: 8814 45bd 078a 773b 095d 40bd a739 8abb
00000060: 814d f4bc 5370 f93c 4e23 8b3d 94f6 efbc
00000070: f248 16bd a889 c6bc 6cc5 42bb 7697 5cbe
00000080: 9033 0dbd c5ea d13c 6845 a13c ffc7 a73a
00000090: 8124 fc3a 6c5b febb 4a4b 69bc 316a 333c
000000a0: a37d ba3c caa0 263c d3c2 ec3c 7658 7c3d
000000b0: 0000 0000 ea89 bc3c 747f 643c ede5 e4bb
000000c0: ac1f 6abc 15a1 bbbc 8e48 cc38 a36c 26bb
000000d0: aa98 863d 6442 d8bc 2db0 ea3b 664d b43b
000000e0: 7df9 b3bb f8ce e2bb 212a 943c 42f2 263c
000000f0: fb30 483e ce0e ccbc a12c 85bd 67a7 a43c
0.1293609 -0.003940169 0.0118843615 -0.012295568 -0.028165512 0.025305077 -0.011327014 -0.08386195
0.034396462 -0.015165531 -0.019583838 -0.034358453 -0.0041937097 0.007321456 -0.006270338 -0.014042917
-0.0363721 0.0038437364 -0.014396835 0.006286184 -0.048115283 0.003777148 -0.046963725 -0.0042182985
-0.029822113 0.030449068 0.06793843 -0.029292382 -0.03669066 -0.024235561 -0.0029719723 -0.21542153
-0.034473002 0.025624642 0.019686416 0.0012800692 0.0019236953 -0.007762363 -0.014239142 0.010950611
0.022764986 0.010170171 0.028901493 0.0616078 0.0 0.023014981 0.013946403 -0.006985417
-0.014289778 -0.022903958 9.7409924e-05 -0.0025394342 0.06572087 -0.026398845 0.007162115 0.0055023907
-0.005492388 -0.0069216453 0.018086495 0.010189595 0.19549935 -0.024909403 -0.06502653 0.020099355

weight f4 [64, 64, 1, 1]
00000000: 166c 6c3d 97d5 53be dbbd 61be d983 7dbe
00000010: c836 b2bd b6ab 05bd 10f6 0abe fb91 1d3e
00000020: f118 dd3e 932c 853e 400d 60bd f45e 5ebd
00000030: 20ea fb3d 6883 9d3c 668f 393d 15b8 9abe
00000040: c54b 3bbe a50c 0dbe 9299 2dbd 9ff5 3fbe
00000050: 4b19 7d3e ecbe 433e d7e4 35bd 11ba 123e
00000060: 5949 a13d 3f30 97be d801 3b3e caf2 95bd
00000070: c95b 1c3d ff11 803e 6ece bfbd 0667 9cbe
00000080: 7db3 4b3e 284d 8e3e 0017 423e 4a0c 343e
00000090: b5a5 e3bd 12a1 26be ee3b 98bb c21c 013e
000000a0: 58e7 443e 3e59 bc3d f007 723e b0ab fcbc
000000b0: 5f3a 84bd 164a b7bd b121 16be b34a e63d
000000c0: 291d 113c 2e15 d4bd f913 ac3d 71c0 8ebe
000000d0: 935c ab3d 406f 853e d3cd 8d3e 9a9b 12be
000000e0: cc4d b13d b557 aabc 64f4 4dbe f72e 1bbd
000000f0: f553 d1bd fc24 833c 6522 a13e d01e 823c
00000100: 924e 98bd 7b14 b73d ee4b f8bd 91bc d2bc
00000110: 9c0c 033e 7e55 6a3c e8e6 4dbd fd57 06bd
00000120: 9e7e 4c3d c9a2 2abc e263 213e ae0f b63e
00000130: d6e7 833e 714e 6bbe 7204 ddbc 8f9a 8f3e
00000140: 8726 15be aa01 a23d 1b94 b83e 4d12 2a3d
00000150: 3bf2 633d f717 cabd 4df6 52be 52ef 493d
00000160: 3c06 133e dc4f d03d 3f27 01bd 895e 49be
00000170: a788 6a3e 9b92 96be f436 80bd 9653 863d
00000180: 4a7b 753a 32c5 1ebd 5e6d a63e 42ed 8e3c
00000190: d3d1 13be 7b58 8dbc 8578 c3bd 1d9d 7e3d
000001a0: a643 e93e ce82 5dbe 409a be3c f726 0fbe
000001b0: bc22 59bd 08aa 9bbe def2 c93e f7ac ff3c
000001c0: 8409 25bd d97e 903e 9741 293e 6f9b d23e
000001d0: 4213 eabd 6a5f efbd b595 a73d a62c 9fbe
000001e0: 95b5 573e 2eba bdbb 58fc 35bc 372a 083d
000001f0: 1a0b d139 5af3 093e 0c92 5d3d 39f5 1dbe
00000200: 8236 e13c 9cd0 003e d6f7 083e 5f8f a5bd
00000210: 9d99 103d 2fcf 5fbe f74b dcbc d703 263d
00000220: cdfe f0bd a3be d23b 170a 6cbe 0614 f23d
00000230: 4463 333c 413b 45bd f4a0 a53e 9215 403e
00000240: a242 d6bd 3045 963d 8e10 c83c 4510 273b
00000250: 4f44 373e 01a8 8c3e 23a5 713e e551 133d
00000260: 5f78 97be 80f0 34be 072b 29be 62c9 f83d
00000270: 89e0 88be 2e97 57be e05b b1bd 1da9 2c3f
00000280: 9dcf 84be baa9 a03d 8758 403e 741a 413e
00000290: d585 1c3e e972 53bd 2d9f b83e 9c01 813d
000002a0: 2ac8 653e 584e f63d e7cf 80bd 818c c43d
000002b0: 2b0b db3d b15a 17be 2030 8cbd e398 1c3e
000002c0: 3426 4fbd 8657 86bc d723 26bd 3d00 f1bd
000002d0: 0f58 87bd cb21 283e fcac 7dbd 34fe 45bd
000002e0: 1bd4 503e ae51 003e 1261 503e 2ae2 32be
000002f0: 73ae 83bc 4c0d 403d 530e b7bd 1898 20be
00000300: 0ce5 b0be 1932 8bbe a0d4 13be a3cf 663e
00000310: 0ecb 6f3d 55d4 0fbe 88b8 023e 94c3 f23d
00000320: ef16 dcbd d40d bbbd 3e2a 2ebd 774b c4bb
00000330: 765b 423d 4bd4 d1be 99a0 a9be 031b b2be
00000340: d9df 55bd 67bc d63d c4fa 263e 784d f0bc
00000350: 104f 903e 18ab 1fbe 8bee 383e 7a16 d83d
00000360: 9969 88be 0002 b5bd cb01 833d a731 af3d
00000370: 88ca ab3d 987c 033d 4049 c9bd d382 af3e
00000380: 379c 883e 8384 dfbd a022 3a3e 918d 043e
00000390: abfc 89bd 4e73 59bd 4ae6 763e 0e3f ef3c
000003a0: 7a87 723c 4b70 65be 7a2c b13d 29c7 af3d
000003b0: fb01 933e 7c63 73bf 3098 3ebb eb7e 41bd
000003c0: cf6f 0bbd a1b3 803d 5074 5a3d 2439 b0bd
000003d0: d713 c0bc dbde 7f3d b26e bebd 8047 713e
000003e0: d3b6 a93d a2f6 6dbd 694d 833e 5267 30be
000003f0: d101 0bbf 2c74 ea3d 985a a93e ff01 3bbe
0.057720266 -0.20686947 -0.2204508 -0.24757327 -0.08701855 -0.03263446 -0.13570428 0.15387718
0.4318309 0.2601057 -0.054700136 -0.054289773 0.12300515 0.019227698 0.04530277 -0.30218568
-0.18290623 -0.13774355 -0.042382784 -0.18746041 0.2471668 0.191158 -0.04440769 0.14328791
0.07875318 -0.29528996 0.18262422 -0.07321699 0.03817347 0.2501373 -0.09365545 -0.3054735
0.19892688 0.2779324 0.18954086 0.17582813 -0.111155905 -0.16272381 -0.004645816 0.12608626
0.19228876 0.09196709 0.2363584 -0.030843586 -0.06456446 -0.08949678 -0.1466129 0.112447165
0.00885705 -0.10355602 0.08402247 -0.27881196 0.083672665 0.2606144 0.27696094 -0.1431717
0.08657417 -0.020793775 -0.20112759 -0.037886586 -0.10221092 0.016008846 0.31471553 0.015883833
-0.07436861 0.08939453 -0.121238574 -0.025724681 0.12797779 0.0143026095 -0.050269037 -0.032798756
0.04992544 -0.010414788 0.15760759 0.35558838 0.25762814 -0.22979142 -0.026979659 0.28047606
-0.14565478 0.07910474 0.36050496 0.04152136 0.05565093 -0.09867852 -0.20601769 0.0493005
0.14357847 0.10171482 -0.03153157 -0.19664969 0.22903691 -0.29408726 -0.062604815 0.065589115
0.000936438 -0.03876228 0.32505316 0.017447118 -0.1443551 -0.017254105 -0.09544472 0.062161554
0.45559424 -0.2163193 0.023266912 -0.13979708 -0.05301164 -0.3040316 0.39443105 0.031210406
-0.040292278 0.28221777 0.16528927 0.4113421 -0.114294544 -0.11688121 0.08182851 -0.31088752
0.21065362 -0.0057900166 -0.011107527 0.033243384 0.00039871858 0.13471738 0.05409436 -0.15425576
0.027491812 0.12579578 0.13375792 -0.080839865 0.035302747 -0.21856378 -0.026891692 0.040531006
-0.117673494 0.006431417 -0.23050724 0.118202254 0.01094896 -0.048152212 0.3234936 0.18758228
-0.10461928 0.07337415 0.024421956 0.0025491875 0.17897151 0.27471927 0.23598151 0.035966773
-0.29584023 -0.17669868 -0.1652032 0.12147786 -0.26733807 -0.21053764 -0.08660102 0.67445546
-0.25939646 0.07844873 0.1878377 0.18857747 0.15285428 -0.05162326 0.3605894 0.06299135
0.22439638 0.12026662 -0.06289654 0.095971115 0.106954895 -0.1478069 -0.068451166 0.15292697
-0.050573543 -0.016399156 -0.040561523 -0.117676236 -0.06608593 0.16419141 -0.06193255 -0.04833813
0.20393412 0.12531158 0.2034953 -0.17469087 -0.016074395 0.04688768 -0.08938279 -0.15683019
-0.3454975 -0.2718666 -0.14436579 0.22540145 0.058543257 -0.14045842 0.12765706 0.1185371
-0.10746562 -0.09133497 -0.042520754 -0.0059904414 0.047450505 -0.4098228 -0.3313034 -0.34786233
-0.05221543 0.10485154 0.16306597 -0.029333815 0.2818532 -0.15592611 0.18059747 0.10551162
-0.26643065 -0.08838272 0.06396826 0.08554392 0.08388239 0.032101244 -0.098284245 0.34279498
0.26681682 -0.109139465 0.18177271 0.12944628 -0.06737646 -0.05308848 0.24111286 0.029204872
0.014802808 -0.22406118 0.08651061 0.08582909 0.28712448 -0.95073676 -0.002908241 -0.04724018
-0.034042176 0.062842615 0.05333358 -0.08604649 -0.02344696 0.06246839 -0.09298457 0.23562431
0.08286824 -0.058096536 0.25644997 -0.17226914 -0.54299647 0.11447939 0.3307693 -0.1826248

bias f4 [64]
00000000: c009 97bc 5f1c 123c 8a01 cb3c b154 c6bd
00000010: 3ce8 85bb 0339 fbbd 1649 9c3d d59a 333c
00000020: 45cd abbd 4ece b13b 23e9 043e 4038 67bd
00000030: 4f7a 843c 7ecd 89bc ccb3 1abd 3cec cfbb
00000040: 2fb8 2e3d 9719 7bbd f018 e9bd 0000 0000
00000050: c6aa a239 e758 103d 98e8 55be fc13 2ebb
00000060: 0000 0000 e80d 81bc fb84 eabd 2c58 013e
00000070: a0a9 c6bc 372a 5e3c 0000 0000 6138 853d
00000080: 0f6a b4bc c898 91bd daa3 51bd 12c1 28bb
00000090: 8fe2 903b c53e 9c3b 9ca1 15bd 29a9 893c
000000a0: 977a c73b 3825 333c b258 423d 8ece 0c3d
000000b0: 3586 87bc a78f 8cbb 8ca3 993b e6b2 ca3c
000000c0: e7ce c13c e4e7 18be 21f1 5fbc c3a0 843d
000000d0: 517b ddbb 656c 2bbb 4d1e 7e3d e1e1 19bd
000000e0: eeee 50bc 07b9 3dbe 7f68 fb3c ee78 19be
000000f0: 2de5 13bd 131f 59bd 1123 08bc 0000 0000
-0.018437266 0.008917897 0.024781007 -0.09684122 -0.0040865224 -0.122667335 0.076311275 0.010962208
-0.083887614 0.0054262048 0.1297956 -0.05645013 0.016171603 -0.01682162 -0.037769124 -0.0063453
0.04265612 -0.0613037 -0.113817096 0.0 0.00031026284 0.035241034 -0.20889509 -0.0026562205
0.0 -0.015753701 -0.11451145 0.12631291 -0.024250805 0.0135598695 0.0 0.06504894
-0.022023229 -0.07109219 -0.05118165 -0.0025749844 0.004421539 0.004768225 -0.036531076 0.016804295
0.006087612 0.010934167 0.047447868 0.034376673 -0.016543487 -0.0042895856 0.0046886858 0.024743509
0.023658229 -0.14932209 -0.013668329 0.06475975 -0.006759085 -0.0026157137 0.062040616 -0.03756893
-0.012752278 -0.18527614 0.030689476 -0.14987537 -0.03610723 -0.05300815 -0.008309142 0.0

weight f4 [64, 64, 1, 1]
00000000: 338b 8fbe 1439 603d f4cf c43c a4e4 02bf
00000010: b7a3 92bc aaeb 073e ef8a 10be 9ede 4abd
00000020: 6012 043e 6216 cd3e 8ff4 1b3e b96a c2bb
00000030: 4780 5c3d fc29 14be 41e2 15bd 1592 013d
00000040: 608b 893e 806a 47bd f409 d93d ade3 84be
00000050: df55 91bc 1fc3 a73e a607 42bd e7d4 2abe
00000060: 83fe 87be 88dd 2f3f 4048 f3bd f30c 113f
00000070: 31db 1ebe 7055 2abe 5206 0bbd 131b 0f3c
00000080: 31a0 ff3c 3bb5 0bbb bfeb 7abd 81c0 9bbc
00000090: d05b 41bd 633a 913d 31b9 d7bd 0a06 febd
000000a0: 5fdf 4e3e d9ca b0be 2f53 763e 5621 c6bd
000000b0: d226 3abe 988d 6abd 4b72 d33b 0bc7 523e
000000c0: 8e69 813e 5d8e eebc 7d3c 683d 8b20 143e
000000d0: f9f7 24be a82e 9b3b f318 2fbe e752 08be
000000e0: 66d3 8e3d 4aed 0cbe 00aa 523e 57d9 52be
000000f0: c22e 22be f03f 41be a6be 6b3e 2ab2 2cbd
00000100: 61d9 823d e0ec c43d 72b4 443e 111f 0bbe
00000110: ece2 f0bd 1899 7ebd c6a2 b33d d619 6ebe
00000120: 8ad5 053e 68b7 8b3e 9427 f1bd b14f 0bbe
00000130: 44c3 bebd 7652 713d 861c 143d 70b1 9cbb
00000140: c309 503e bd9f 44bd 3b36 6c3d 006c 80bd
00000150: d1c9 58be 828b 933d 775d 6dbe f2f5 4dbe
00000160: ca0f 9c3d 5fe1 0a3f 2c0d 00be fc13 11be
00000170: 4b79 483c 9c24 c23d cd0a f7bd 5175 153e
00000180: 09ed 1cbe 5831 b6be 473a 2a3a 0e7c 0bbe
00000190: f151 38be 80b3 773e ff7a ac3d 58fe 5dbe
000001a0: e325 823e e8bc ccbc f442 803c e2d0 02be
000001b0: 0b81 2a3e 20f3 493e c12e 4cbb 1c04 bcbd
000001c0: 9aa1 e13d 4037 edbd 2c55 adbc 280a 2dbd
000001d0: f90c c93c 1ed9 6a3c 1817 863d 08a3 40bc
000001e0: 6f8c d53d 53f0 cdbb 4afa d4bd 7cf1 853d
000001f0: 6615 0cbe 8a99 65be 16df 19be a866 f4bd
00000200: 9931 5abe a1d6 963e 0f65 a93d 68b8 b9be
00000210: 43f3 6c3e 562a eb3e d2c7 223e 5d9a a93e
00000220: 08c8 4fbe ce9c f23e 3bd8 6dbd a176 7dbc
00000230: a4da 023d dbf9 93bd cde0 1cbd 29a5 64bd
00000240: 13f3 363e 2cbd eabd e4d3 b03d 87bb e239
00000250: cbdb 3f3e 1b07 893e 18c2 b73e 4754 b93d
00000260: 92e5 013f ec3e 3b3f 1aa0 153d c947 fabc
00000270: 5c14 713d 5079 693e c33b 92bc 9a38 c6bd
00000280: fe05 11be 7de6 ac3e a0d3 483e 9e7e c33c
00000290: 2f29 1a3d ecfe 9fbd 75f2 e3bd 575b 7bbd
000002a0: 28f4 71be f969 453e cf79 a4bd b6b9 7a3d
000002b0: 36f4 02be df00 46be da41 cc3e fbe6 10bf
000002c0: 54d2 b73b 4039 e53d 93c7 bf3d a453 91bd
000002d0: b0b0 c83e 4e1f dc3e af62 82be c6c9 a93d
000002e0: 5857 fc3d 7596 e3bd e539 593e 7c6c b53e
000002f0: c697 8cbb 3f22 7fbd 68ae 903e 62cd 863e
00000300: 9ea6 85bc fc9e 1bbe 99fe 4bbe a9a4 b6be
00000310: 731a f23d 35e8 c43c c7c8 eb3d 5d6c 39bc
00000320: 09c4 013e 15db 04bd 19ad a53e 590e 93bd
00000330: 6ebe bdbe ee85 b83c 63e0 033e 6086 c13d
00000340: fbe9 adbc 19a6 80be 8be1 c73c 243e aa3d
00000350: 2805 603d a63e d33d e2b2 8d3e 510d 313d
00000360: 5e83 e53d 8834 9abe a279 583e 1f99 40be
00000370: a5d8 2abe 192d 70be 82b0 583e 857d 99bd
00000380: 6ec0 ed3c 47d4 89be 9cf6 63bd 6770 61be
00000390: f559 08be 7f53 0dbe 189b 3bbe 7294 6bbe
000003a0: c8a4 7c3d 13a1 733e 16e9 933d 84fb 173e
000003b0: 1a90 1c3e 478e 5d3e 1b34 18be a631 e7bc
000003c0: 9f03 9eba 8c6b 983e d325 34be 41ea 753e
000003d0: 0da5 69be 7689 39bc 1b65 f23d 1af3 543d
000003e0: 2cdb 3d3e 578b efbd a77b 40be 38e6 8dbe
000003f0: 34a9 7bbd 434a b0bd 36a4 023d b9e4 35bc
-0.28035888 0.054741934 0.024024941 -0.5113013 -0.017900331 0.13273492 -0.14115499 -0.04952871
0.12897635 0.4005614 0.1523001 -0.0059331325 0.053833272 -0.14469141 -0.036592726 0.031633455
0.26864147 -0.04868555 0.105976015 -0.25954953 -0.017741142 0.32766053 -0.047370575 -0.16682778
-0.26561365 0.68697405 -0.11879015 0.56660384 -0.15513302 -0.16634154 -0.033941574 0.008734482
0.031204315 -0.0021317739 -0.06125998 -0.019012691 -0.0472067 0.070912145 -0.10533369 -0.124034956
0.20202397 -0.3452976 0.2405517 -0.09674327 -0.18178871 -0.05726394 0.006452834 0.20583741
0.25275844 -0.029120618 0.05669831 0.14465539 -0.16110219 0.0047357865 -0.17099361 -0.13312875
0.06973915 -0.13762394 0.20572662 -0.20590721 -0.15838149 -0.18872046 0.23021945 -0.042162098
0.06389118 0.09615493 0.1920946 -0.1358607 -0.11762032 -0.06215772 0.08771281 -0.23252043
0.1306974 0.27288365 -0.11775127 -0.13604619 -0.09314588 0.05891653 0.036160015 -0.0047818944
0.20316224 -0.0480039 0.057668906 -0.06270599 -0.21170737 0.072043434 -0.23180185 -0.20113352
0.07620199 0.5425014 -0.12505025 -0.1416778 0.01223595 0.09479639 -0.12062607 0.14595534
-0.15324797 -0.3558452 0.00064936694 -0.13621542 -0.18000008 0.24189568 0.08421897 -0.21679056
0.2541953 -0.024992421 0.015656926 -0.12774995 0.16650788 0.19721651 -0.0031155797 -0.09180471
0.11017151 -0.11582804 -0.021158777 -0.042246014 0.024542319 0.014333991 0.065473735 -0.01175762
0.10427176 -0.0062847524 -0.10399301 0.065402 -0.13680038 -0.22421852 -0.15026507 -0.119336426
-0.21307983 0.29460624 0.082712285 -0.36273503 0.23139672 0.45930737 0.15896538 0.33125582
-0.2029115 0.47385257 -0.05806754 -0.015470178 0.031946793 -0.072253905 -0.038300324 -0.05582157
0.17866163 -0.11461863 0.08634165 0.00043245798 0.18736188 0.26763234 0.3589027 0.09049278
0.5074092 0.73142886 0.036529638 -0.030551808 0.058857307 0.22800183 -0.017850762 -0.09678765
-0.14162442 0.337696 0.19611979 0.023864087 0.037636932 -0.07812294 -0.111302294 -0.061366405
-0.23628294 0.19278707 -0.08031046 0.061212264 -0.12788472 -0.1933627 0.3989399 -0.5660245
0.00560979 0.1119256 0.09364238 -0.07096031 0.39197302 0.42992634 -0.25465915 0.08290438
0.12321347 -0.11112682 0.21213491 0.3543433 -0.0042905537 -0.06228852 0.2825806 0.2632857
-0.0163148 -0.15197366 -0.1992134 -0.356725 0.11821451 0.024036506 0.115129046 -0.01131734
0.12672438 -0.032435495 0.32358626 -0.07180471 -0.3705935 0.0225248 0.12878565 0.09449458
-0.021229735 -0.25126722 0.02439954 0.08312634 0.054692417 0.103146836 0.2767554 0.04322559
0.11206697 -0.30118203 0.21140149 -0.18808411 -0.16684206 -0.23454703 0.21161082 -0.07494644
0.029022422 -0.26919767 -0.055655107 -0.22015534 -0.13315566 -0.13801382 -0.18320882 -0.23005846
0.061680585 0.23791914 0.07222192 0.1484204 0.15289345 0.21636306 -0.14863627 -0.028221916
-0.0012055523 0.29769552 -0.17592554 0.24015142 -0.22816868 -0.011324277 0.118356906 0.051989652
0.18540639 -0.11696499 -0.1879717 -0.27714705 -0.06144066 -0.08607914 0.031894885 -0.011101895

bias f4 [64]
00000000: 1628 2f3e db19 893a 99d3 123c 3895 d73d
00000010: 7e2a 12bb ee4b 323d 50a5 943b 84e6 b3bc
00000020: d236 d2bc e401 ec3b b8fb bdbd 5439 503d
00000030: ed52 afbb 2f92 11bc e1ae 863c 74cc a4bd
00000040: 5bfa e1bc 8ad4 66bc ef84 153d b08a febc
00000050: c750 bcbb d647 9e3c 1e30 9cbc f281 883d
00000060: d315 75bc 4281 b5bc 078c c53b b9da c93a
00000070: fc9a 82bc 5166 2bbb 76c7 873d 89ce 90bb
00000080: 8339 763d 65da 773c 2081 bfba c901 cd38
00000090: 64cb c639 e1ba 07ba 9dec 46bb 2faf 75bb
000000a0: b8ae ccbb 33fd 843c 3632 ec39 ef64 35be
000000b0: 214b 08bd 33a6 f73c 0000 0000 eabb e739
000000c0: 7070 753c 25d2 923b 7d81 9f3c dd33 9ebb
000000d0: 4dab 91bc b85d a4bb 5df2 723c e3d2 343d
000000e0: 5126 ef3c ca5a 2e3e cb01 8b3c cf90 3ebb
000000f0: db3a d03b 1e10 4fbe 0b67 3cbb 67c7 d4ba
0.17105135 0.0010459976 0.008961582 0.10526508 -0.002230316 0.043529443 0.0045363083 -0.021960504
-0.025660906 0.007202374 -0.09276527 0.050835922 -0.0053504617 -0.008884951 0.01644081 -0.08046809
-0.0275852 -0.014088759 0.03650373 -0.03107199 -0.005746934 0.019321363 -0.019065913 0.0666541
-0.014958817 -0.022156361 0.0060286555 0.0015400267 -0.015943043 -0.0026153515 0.06629841 -0.004419152
0.06011344 0.015127753 -0.0014610626 9.775494e-05 0.0003791704 -0.00051776884 -0.0030353435 -0.003748845
-0.006246414 0.016234016 0.00045050838 -0.17714284 -0.033274774 0.030230617 0.0 0.0004419976
0.0149804205 0.0044806176 0.019470925 -0.00482796 -0.017781878 -0.005016055 0.014828292 0.04414643
0.029193075 0.17026821 0.016968628 -0.0029078012 0.0063546724 -0.20220992 -0.0028747942 -0.0016233743

weight f4 [64, 64, 1, 1]
00000000: a8e3 143d 124e 413e aaf5 123d 48f8 90bd
00000010: 1eaf 1f3d aca1 ce3e 18d7 3a3e eb79 43bc
00000020: bbe6 4b3d c1fb 403e 8f6c 80be 30be 6fbe
00000030: 4749 0fbd f01b 2f3e 45c3 c0bd 5925 64bd
00000040: 1d0a f6bd e1ef 06be fdb7 34be 6ded 473e
00000050: 1e2f 273e 14f7 ae3d 750b f5bd 3552 3cbc
00000060: 68c1 f33c d452 963d c58f 69bd 1958 803a
00000070: 0016 aabe 64c8 eb3d d5bc 573d 33de 77be
00000080: 997b 8f3e ac2b 923e 758a ed3c be89 d8bd
00000090: 7f00 dd3d 9c31 403d 87a8 5b3e 918a ca3d
000000a0: 32bb 1abc 4e4d 413c eeae dd3d c3d8 81be
000000b0: 1680 3e3b 8791 b23c d05f 78be 39de d1bd
000000c0: 2bc2 863d a40c 063d 7cf8 6bbe c61c dbbc
000000d0: a3ae fd3c dd46 0fbe b10f 7dbe 6bc6 463e
000000e0: 2663 ca3c 2a23 0a3e 86c0 76be 24ff d03c
000000f0: 1ba2 473e 982d 973e 8281 163e ba31 49be
00000100: 9a50 d23d 6eca 323e e3f0 66be 9f4f c1bd
00000110: 16e1 833d e7aa a4bd a46c 2b3d 2a8c 35be
00000120: 57b6 35bd 5cae ddbe 2fc0 923e f712 f83d
00000130: ced1 47be a617 33bd eafa f5bd 212b 85bd
00000140: 29af 63be 44a6 c03c 71b7 243e 65fa 6c3c
00000150: ba68 3f3d a3c7 953e d9da aabe 5dee f23d
00000160: 3df8 00be 7229 1ebd 57b3 4ebe 56c1 70be
00000170: 9da1 4abe 4bda 64bd 0601 1b3d c4e4 083e
00000180: 846b 55bb 1439 eebd a623 8fbd 006f 013f
00000190: 4a54 8d3e a3b8 66be 469e 383e 9cb2 c73c
000001a0: 02ad 45be 1268 cebb 745e 08be 0813 8e3c
000001b0: 43af 3abb 0b9f 48be 999d 923e 207a 633e
000001c0: 0925 4cbe 4f5a acbd 9874 313d a901 e83d
000001d0: b47d a9bd 78dd 163e 9d45 9b3d 3984 01bd
000001e0: 6b8d 29be 920f 53bd 8cad 183e 0ab7 f6bd
000001f0: 4ce2 3f3e 81c3 493e 0016 f7bd 3753 53bc
00000200: 53f5 d73d c043 05be 5416 08be d6f6 4bbe
00000210: 8660 2a3d c713 10bd 96a4 7abd 311c 603e
00000220: 78ac 49bd 2b18 b5be 8a78 303e dde4 35be
00000230: 6dbb 1b3d cbfa edbd 6f54 f3bd 2483 253e
00000240: 6c22 c53e 5a01 b33d e3ac 1e3e e6e6 9abe
00000250: 4103 80bd d2a5 2cbe a29c 5d3e 6ba3 96be
00000260: 2311 02bd 7d4d c43c 0bcf e9b9 5847 b3bd
00000270: b362 ec3d 35f1 983e 665a f43c 5bd5 d73d
00000280: adac 55be e07c dabd c8a5 c93d b926 b13e
00000290: bf12 a6bd db6c 10be 8d8b afbd 557f e63d
000002a0: db2f e2bb ed64 0dbe f459 eb3d ee0b a0be
000002b0: d55c 02bd ae09 4cbe 2b54 e4bd f69c a53d
000002c0: 729c c43e bc93 ecbd ee1f 713d a492 04bd
000002d0: 4dc5 79be 6df5 05be 3b3d 963d 5d9c aabe
000002e0: f2ed a6be 1816 5abe d25e 763d 369f 0f3e
000002f0: 0bc3 a939 f1d0 92be 701e 95bd 38c9 bfbc
00000300: 1548 62bd f0cc d03d a771 debd 37a7 acbd
00000310: 8268 143c 41bc 92bd 3837 303e de2b 2e3e
00000320: 7d4c d83e 6ea9 88be 1c10 92be dd56 a73c
00000330: 8526 3ebe 0516 b43e 72af 853e 2a47 313d
00000340: dcfe a93e 9bf5 a43d b14f a83d 40db 52be
00000350: 60ce 1a3e cc41 ae3e 18db 26be 87ca 36be
00000360: f61f cc3d 0665 103d d0f0 44be 29ee b13c
00000370: aeb2 e03d b756 cc3e c0b6 563d 4776 243d
00000380: dbec c63e 438f f43c b848 253e 5fed 4ebe
00000390: 7d82 3dbe eab5 733e 4a61 663d 6d8d 29bd
000003a0: 2b38 0b3e 3a11 673e dd10 1fbc 0bc6 12bf
000003b0: 5162 84be 2e5e a6be f8db 0c3e 206a 1a3e
000003c0: db93 843e e7b4 8ebe 6e50 51bb 4d2b 993a
000003d0: 077d 6bbe ad9a 4bbc c578 c3bd ccf0 d7bd
000003e0: 4bd2 e5bd 1db8 ea3d 1ca4 39be 37e3 333d
000003f0: e4c9 cdbe 0948 82bd a460 913d ff54 e3bd
0.036349922 0.18877438 0.035878815 -0.07078606 0.038985364 0.4035772 0.18246114 -0.011930923
0.04978059 0.18846036 -0.25082824 -0.23412395 -0.034981992 0.17100501 -0.09412245 -0.05569968
-0.12013648 -0.13177444 -0.17648311 0.19524164 0.16326568 0.0854322 -0.11965076 -0.011494209
0.02975531 0.07340017 -0.057021875 0.000979188 -0.3321991 0.11512831 0.05267032 -0.24205856
0.28023985 0.28548944 0.028996686 -0.10573147 0.1079111 0.04692231 0.21451007 0.09889711
-0.009444045 0.011798216 0.10824381 -0.2536069 0.0029068044 0.021797908 -0.242553 -0.10247464
0.06580003 0.0327269 -0.23044008 -0.026747119 0.030967062 -0.13991876 -0.24713017 0.19411628
0.02470548 0.13489977 -0.2409688 0.025512286 0.19495432 0.29526973 0.14697841 -0.19647875
0.1026928 0.17460033 -0.22552828 -0.09439015 0.06439416 -0.080404095 0.041851655 -0.1772925
-0.044363346 -0.43297088 0.2866225 0.12112992 -0.19513628 -0.043723725 -0.12010749 -0.06502367
-0.22234787 0.023516782 0.16085602 0.014463996 0.046730734 0.29253873 -0.33370093 0.118618704
-0.12594695 -0.038613744 -0.201856 -0.23511252 -0.19788213 -0.055872243 0.037842773 0.13368517
-0.0032565305 -0.116319805 -0.06989221 0.5056 0.2760337 -0.22531371 0.18029127 0.02437716
-0.19304278 -0.0062990272 -0.13317281 0.01734306 -0.0028485812 -0.1959192 0.28635862 0.22214556
-0.19936003 -0.084156625 0.043324083 0.11328442 -0.08275929 0.14732921 0.07581637 -0.031620238
-0.16557853 -0.05152852 0.14909953 -0.12046631 0.18738669 0.19703485 -0.12064743 -0.012898258
0.10544839 -0.13014126 -0.13289768 -0.19918379 0.04159596 -0.03517511 -0.061192118 0.21885754
-0.049236745 -0.3537 0.17233482 -0.17763086 0.03802054 -0.116201006 -0.11881339 0.16163307
0.38502824 0.08740492 0.15495639 -0.30254287 -0.06250621 -0.1686013 0.21641782 -0.29421553
-0.031754624 0.02396273 -0.00044595482 -0.08753842 0.11542263 0.29871526 0.029828262 0.10538741
-0.20866652 -0.10668349 0.098460734 0.34599856 -0.08109044 -0.14104025 -0.08571539 0.112547554
-0.0069026775 -0.13808031 0.114917666 -0.31259102 -0.031826813 -0.19925568 -0.11148866 0.080865785
0.38400608 -0.115516156 0.05886834 -0.03236641 -0.2439167 -0.13081904 0.073358975 -0.3332242
-0.32603413 -0.2129749 0.06014902 0.14025578 0.0003237951 -0.28675035 -0.07281196 -0.023411378
-0.055244524 0.10195339 -0.10861521 -0.08430331 0.00905812 -0.07164813 0.17208564 0.17008922
0.42245856 -0.26691765 -0.28527915 0.020427162 -0.18569382 0.3517305 0.26110417 0.043280758
0.33202255 0.08054658 0.08218325 -0.2059145 0.15117788 0.34034574 -0.16294515 -0.17850696
0.099670336 0.035252593 -0.19232488 0.021720009 0.109715804 0.39909908 0.052420378 0.04015186
0.3885258 0.029853469 0.16141021 -0.20207737 -0.18506809 0.23799863 0.056245126 -0.04139464
0.13595645 0.22565165 -0.00970861 -0.5733344 -0.2585626 -0.32493728 0.13755786 0.15079546
0.25894055 -0.27872393 -0.003193881 0.0011685878 -0.22996913 -0.012427014 -0.09544519 -0.10543975
-0.11221751 0.11460898 -0.18129009 0.04391786 -0.40193093 -0.06361396 0.07098511 -0.11100196

bias f4 [64]
00000000: 0407 8d3b 7205 71bd 0228 32bb 39be 84ba
00000010: 9f9f 783c dc0a 8b3d 0a48 f33a 027d c4bb
00000020: 08a6 2bbd 38e3 5ebc d1be 30bb 4625 59bd
00000030: d96c 8ebd 08df df3a 4199 84bc ee10 483c
00000040: bd3a 3e3c 16dc 573c 5f75 7a3c a272 53be
00000050: b2ec c5bd 0904 193c 17f8 11bc a8b4 0bbe
00000060: e767 63ba 7c6f bb3b 01b5 8dbc 05e9 893c
00000070: d337 af3b 40c9 92bd 770c c0bd 80b0 d6bc
00000080: f2a6 2b3d f9c9 d3bc bb88 58bc 60f1 cb3b
00000090: e809 bbbd 768f 8c3d 2854 da3b 73ed 9bbc
000000a0: 0d80 a8bc d1d9 183c 1e84 fb3c 019d 67bc
000000b0: 8f8c 77bc eccd f73a 72be d5bd 0c7b 723d
000000c0: 8b69 99bc 736f 873a 3bf2 56bc 43c3 fbbc
000000d0: 3bcd 463c 035b 61bc 8cfd 17bd 0000 0000
000000e0: ea68 1bbd 6f5a 3abb be3b bcba cfb4 debc
000000f0: c681 cdbd dff3 32bd 742b 493d f071 51bb
0.004303815 -0.058843084 -0.002718449 -0.0010127492 0.015174775 0.06789181 0.0018560898 -0.0059963474
-0.041906387 -0.013603978 -0.0026969204 -0.053014062 -0.06954355 0.0017080018 -0.016186358 0.012211068
0.011610684 0.013175031 0.0152867725 -0.20649198 -0.09664287 0.009339341 -0.008909247 -0.13643134
-0.00086748454 0.005720077 -0.017298223 0.016834745 0.005347231 -0.07167292 -0.093773775 -0.026207209
0.04190726 -0.025853144 -0.013216193 0.0062238425 -0.09132749 0.068633005 0.0066628642 -0.019034123
-0.020568872 0.009329275 0.030702647 -0.014136554 -0.015109195 0.0018905974 -0.10436715 0.059199378
-0.018727085 0.0010332897 -0.013119276 -0.030732756 0.012133892 -0.013754609 -0.037107036 0.0
-0.03794185 -0.002843525 -0.0014361066 -0.027185826 -0.10034518 -0.043689605 0.049113706 -0.0031958781

weight f4 [16, 64, 1, 1]
00000000: a5db 04bd 8e6c 003e cb92 513e 350c 30be
00000010: 3c89 49bc a551 7fbe 91f8 44be 8e3a d53d
00000020: 014b 453e 85a6 9f3e 40b2 8bbe 8588 0fbe
00000030: d630 82be 675e 3abe fb68 7b3d 4df6 453c
00000040: 980f 6bbe 5ae4 17be f5bd 3c3e 18a2 0abf
00000050: 15df 12be 8961 ccbd 820f 40be 39d3 5ebd
00000060: f159 b13d f169 32be a3d8 773d ba58 8e3d
00000070: 75fa 883e 8180 0b3c 74e4 7abd 6fcf 003f
00000080: 0ccd bc3d 0ddb c13d 0caf e73e 0101 0d3e
00000090: a4eb dcbc 5590 54be 9d47 a0bc 1c62 203e
000000a0: 9412 18be 4606 83bd bcab 4c3e af49 b2be
000000b0: 6be3 953c 8e5d 97bd 96fd b5bd f051 743e
000000c0: c370 47be 96e6 49bd 7a9e 843e d4ce 373e
000000d0: 8111 423e 4a8d b0bd 078a 733e 8983 9a3d
000000e0: 8ace ebbc a770 073d 761c 6cbe 926a 2d3e
000000f0: c350 87be fc82 e1bd b124 8a3e 324e 623c
00000100: 20d5 9c3e 70ae 3d3d 3dc5 e73d e9a3 43be
00000110: 9de8 8abd 4a98 76be cc4f 2fbd d762 f8bd
00000120: 76ee 333e c3a4 803d 553a 08be 80d7 56be
00000130: ff13 60be abec 4e3d a118 d0bd 89f2 03be
00000140: 7aa0 a53d 7c22 383e b61c 1d3d 7cb3 d8bd
00000150: 651e 7cbd d43f c63d 2f2a 10be b2de 7cbd
00000160: a0ae 84ba faeb f83c aa88 b03d 5b6e 003d
00000170: 32ea a4bd 3c07 183e 311c b83d 93c5 1b3e
00000180: 7836 f6bd 14a7 f73d 1b6e d93d 5bf0 863e
00000190: 2000 cabe 0830 263d 5b93 3bbd 04d8 f83d
000001a0: 5078 e6bd 7211 d2bd e2ef b53e c0bd 50be
000001b0: 1271 00be 9500 373e f924 39bd 89e2 023e
000001c0: 413f b93d 09ca 26be 7a64 04be 8006 b03d
000001d0: dd99 333d 0bd0 483b 913b 213d a2ea f93d
000001e0: a3a6 183d b901 003e 08c5 24bd e80d 30be
000001f0: 6790 9ebe 7025 85bd 2371 bd3e dbe9 3fbd
00000200: df4e ad3e 49e6 c8bd cc26 3dbd d996 60be
00000210: 8801 a5be 0dd5 86bc 4d00 d9bb d60a 58bd
00000220: 3322 823d e797 b4bd dd12 b5bd 749a c8bd
00000230: 9cef 56bd 2f57 323e 55a6 d53d 474c 1fbe
00000240: fa05 753e 0c2d d33e eda4 1bbd 1831 f53e
00000250: b0c0 b03d e3fc 85be 0479 53bc 2d33 95bd
00000260: 6887 043d 9a40 443e 1774 473c 277c 2b3d
00000270: 0ab4 b7bd b91f b53d 6e66 05be 1979 003d
00000280: a12d 6abd 33e0 2c3d fb72 aa3d 7a6b 503e
00000290: dd87 8bbd 0c8a c23e 335b 9f3d 1925 1f3e
000002a0: dc46 acbd b273 263e 2ac0 313e 1d92 3ebe
000002b0: 6738 f2bd 848d 3b3d fa85 b0bd 4cc3 72be
000002c0: 72e9 383d b50a 52be 2460 c83c d608 c13b
000002d0: eecc 543c ef09 07be 5c6f 743e 4467 77be
000002e0: 7a15 28bd 81af 3e3e 27d3 9dbc 8fb3 babe
000002f0: b215 a5be 78cd 15be 3957 3ebd 2461 8cbd
00000300: 4ca6 f63c 39f3 b7bb 6c4d 933d 380c 49be
00000310: 2799 05be a915 103d d195 563e 3bd7 b53d
00000320: d5fa 7d3d 27bc a4bd 0b6c 75bd ab81 a53e
00000330: ee39 12be 684b 3a3e 3ba0 843d eaf1 953d
00000340: bb21 82be fb6f 043d 3e90 063e 8f15 c93e
00000350: 8b3b d1bd 6f8b 27be 2dc5 263e 535b 46be
00000360: d844 de3d e940 573e d38b 313d d734 113e
00000370: 0325 953e 36b4 32bd 266b a6bc d984 85bc
00000380: ffc3 093e ed99 8dbd 256e fa3d 267b 983e
00000390: 8a2e da3e db5c e23e 120d 0d3e f184 473e
000003a0: 9aac 793c e061 963e 9acc a7be 43a0 9d3d
000003b0: ab0e 6b3e 3bd0 a1bd ee9a 2abd e50c 68be
000003c0: a34d e6bd 650d d53d efb1 c0bd 7bba 383d
000003d0: 258b c6be 6f67 a3be 0269 703e ef52 93bd
000003e0: d9d1 bdbe 6804 8a3c 3e3f a8bd 536f e63d
000003f0: 9a53 edbe 7082 65be a6d2 80be a545 3b3c
-0.03243603 0.1254141 0.20466153 -0.17192157 -0.012300786 -0.24933489 -0.19235446 0.10411559
0.19266893 0.31181732 -0.2728443 -0.14016922 -0.25427884 -0.18200074 0.061379414 0.012082648
-0.22955167 -0.14833203 0.18431838 -0.54153585 -0.14342912 -0.09979541 -0.18755916 -0.054400656
0.08659733 -0.17423226 0.060509335 0.06950517 0.26753584 0.008514524 -0.061253026 0.5031652
0.09218797 0.09465609 0.45250738 0.13769914 -0.026967831 -0.20758183 -0.019565398 0.15662426
-0.14850837 -0.06397681 0.19987386 -0.3482184 0.018296918 -0.07390891 -0.08886258 0.23859382
-0.19476609 -0.04929217 0.25902158 0.17949992 0.1895199 -0.08620699 0.23783122 0.075446196
-0.028785009 0.033066418 -0.23057732 0.16935185 -0.26428804 -0.110113114 0.26981118 0.0138125885
0.3063135 0.046308935 0.11316917 -0.19105496 -0.06782649 -0.24081531 -0.04280071 -0.12128227
0.17571434 0.06281426 -0.13303502 -0.20980644 -0.21882628 0.050518673 -0.101609476 -0.12885489
0.08087249 0.17981905 0.03835746 -0.10581109 -0.061552424 0.09680143 -0.14078592 -0.061735816
-0.0010122843 0.03038596 0.086198166 0.031355243 -0.08052482 0.1484651 0.08989752 0.15212087
-0.12022108 0.120924145 0.10616704 0.26355252 -0.3945322 0.04057315 -0.045794826 0.12150577
-0.112534165 -0.10257234 0.3553458 -0.20384884 -0.12543133 0.17871316 -0.045201275 0.12781729
0.09045268 -0.16288008 -0.12928954 0.0859499 0.043847907 0.0030641581 0.039363448 0.12202956
0.037268292 0.12500657 -0.040226966 -0.17192805 -0.30969545 -0.06501281 0.3700038 -0.04685388
0.33849236 -0.098095484 -0.046179578 -0.21932544 -0.3222773 -0.016459012 -0.0066223503 -0.05274471
0.06354179 -0.088180356 -0.088414885 -0.097950846 -0.052474603 0.1741607 0.10432116 -0.15556441
0.23928061 0.41245306 -0.037999082 0.47889018 0.08630502 -0.261695 -0.01290727 -0.07285152
0.032355696 0.19165269 0.012173674 0.041866448 -0.089698866 0.08843941 -0.13027355 0.031365488
-0.05717242 0.042206 0.08322712 0.20353499 -0.06813023 0.37995946 0.07781067 0.15541495
-0.08411953 0.16255072 0.17358461 -0.18610425 -0.11827164 0.045789257 -0.08619304 -0.23707312
0.045144506 -0.20511897 0.024459906 0.005890946 0.012988312 -0.13187383 0.23870605 -0.24160486
-0.041036107 0.18621637 -0.019265724 -0.36465117 -0.32243115 -0.14629161 -0.0464699 -0.068544656
0.030108593 -0.005613711 0.071925014 -0.19633567 -0.13046704 0.035176907 0.20955588 0.088789426
0.06200679 -0.080437 -0.05991749 0.3232549 -0.14279911 0.18192828 0.06475874 0.07321532
-0.2541636 0.032333355 0.13140962 0.3927426 -0.10216435 -0.16361783 0.16286154 -0.19370775
0.10852975 0.21020855 0.043346237 0.14180313 0.291298 -0.043628894 -0.020314764 -0.016298698
0.13453673 -0.06914125 0.1222804 0.29781455 0.4261363 0.44211468 0.13774517 0.19484307
0.015238905 0.29371548 -0.32773286 0.07696583 0.22954814 -0.07901045 -0.04165166 -0.22661169
-0.11245277 0.104029454 -0.09408938 0.045099717 -0.38778034 -0.3191485 0.23477557 -0.07193553
-0.37074164 0.016847804 -0.082151875 0.11251702 -0.46352845 -0.22413039 -0.25160712 0.011430179

bias f4 [16]
00000000: 8157 943b 1a1a 88bb 84b5 ed3b 0493 4f3b
00000010: 824a cc3b 0479 803c 7cb7 133c cdcd 753c
00000020: 63e0 84bb eb85 133c 32dc 813c 00c0 ca3b
00000030: 7f57 943b 9bc2 ca3b 331a 88bb 7457 943b
0.004527033 -0.004153502 0.0072543044 0.0031673322 0.006234468 0.015682705 0.009015914 0.01500268
-0.0040550693 0.0090040965 0.015852068 0.006187439 0.004527032 0.0061877496 -0.004153514 0.004527027
